model.tflite (tflite, 3044 bytes, 3 tensors)

sequential/dense/BiasAdd/ReadVariableOp f4 [128]
00000000: 5a8a 0abc 334e c7bc a956 873e 9dfa 50bd
00000010: abc1 3cbd 34c8 513e 235d 45bd 656c 64bd
00000020: e16a 26bd 8db3 f5bc 25db 4dbd 5211 25bd
00000030: b817 14bd 16e5 043e b191 813e 2437 7c3e
00000040: d016 5f3e 1c45 3bbd c109 613e 1816 613e
00000050: 6735 4abd bf17 0ebd e490 693e 5aa7 6d3e
00000060: 6725 25bd a2f5 6e3e 01e7 3ebd 2bbd dcbc
00000070: e810 603e aef5 06bd f343 6c3e 4123 3cbd
00000080: 4f7e 67bd 4f80 4b3e db7b 6bbc a677 443e
00000090: 0164 43bc d436 5f3e 2363 4cbd 4c39 6b3e
000000a0: 783d 41bd edc0 bebc 6c06 8dbd b18c 85bd
000000b0: 4edb 4e3e e5ca 64bd 3ddd 6f3e 9b0d 08bd
000000c0: aa83 723e 6a5e 643e 3331 893e 0181 793e
000000d0: bf88 06bd c27b 12bd f547 693e 9643 5b3e
000000e0: 4e1c c4bc 54ad 613e 1944 6dbd 12b8 26bd
000000f0: 38c0 823e 3933 6ebc 127f 6d3e 2636 833e
00000100: 598c 6e3e 7bbc 6d3e c277 02bd 1015 713e
00000110: 36ad 3abd 2eaf 5b3e e7f8 f3bb d2c3 693e
00000120: 5ae9 653e 3241 663e b0d3 5f3e eff4 88bd
00000130: 1973 673e be27 7a3e 098c 673e 038a 3bbd
00000140: 9d2f 29bd c571 6f3e 6fa6 dbbc 8468 f9bc
00000150: c3d9 58bd 0ec9 673e 98e7 20bd a6f0 543e
00000160: c0c8 473e 2dbf 6a3e 1858 543e 188d 6e3e
00000170: bbfe 893e b027 653e dd64 773e 6d8f 403e
00000180: 5015 7e3e 8a5c 643e f19f 86bd 482d 763e
00000190: 5b1b 6b3e 1c60 44bd 9e1f 533e 3362 debb
000001a0: a4e1 563e a295 593e 4f3d b9bc 01b0 cabc
000001b0: fdd1 743e 6c72 44bd 804e 873e c6cb 893e
000001c0: ac52 523e 3ea3 fcbc 7428 4d3e b30f 643e
000001d0: 05b3 8b3e f30c 5d3e 7b3d 333e 770c 8a3e
000001e0: 132d 3cbd e2c4 683e dda0 363e a512 15bd
000001f0: b598 6b3e 0bb9 593e c2d0 823e 147b 5a3e
-0.008455837 -0.02432928 0.26433304 -0.051020253 -0.046083134 0.20486528 -0.048184525 -0.055767436
-0.04062927 -0.029992843 -0.05025782 -0.04029972 -0.036155432 0.12978014 0.25306466 0.2463041
0.21786046 -0.045720205 0.21976377 0.21981084 -0.049367335 -0.034690615 0.22809178 0.23208371
-0.040318873 0.23335889 -0.04660702 -0.026945671 0.21881449 -0.032949142 0.23072796 -0.04593206
-0.05651694 0.19873165 -0.014372791 0.19186267 -0.011925698 0.21798259 -0.04989923 0.22971076
-0.04717776 -0.023285354 -0.068859905 -0.065209754 0.20200846 -0.055857558 0.2342424 -0.0332161
0.23683038 0.22301641 0.2679535 0.24365617 -0.032845255 -0.035762556 0.22781356 0.214125
-0.023939278 0.22038776 -0.05792627 -0.040702887 0.25537276 -0.01453858 0.23193005 0.2562725
0.23295726 0.23216431 -0.03185249 0.23543191 -0.045575343 0.21453544 -0.007445443 0.22828606
0.22452298 0.22485808 0.21858096 -0.066873424 0.226025 0.24429223 0.22612013 -0.045785915
-0.041305173 0.23383243 -0.02681276 -0.030445345 -0.05294205 0.2263529 -0.039283365 0.20794925
0.19510174 0.2292449 0.2073673 0.2329601 0.26952156 0.22378421 0.2415957 0.18804713
0.24812818 0.22300926 -0.06573475 0.24040711 0.22959654 -0.04794322 0.2061753 -0.0067866086
0.20984513 0.21248487 -0.022612242 -0.024742128 0.23908229 -0.047960684 0.26427078 0.2691328
0.2053935 -0.030839559 0.20034963 0.22271614 0.2728502 0.21586971 0.17503922 0.26962635
-0.045941424 0.22731355 0.17834802 -0.036394734 0.23007472 0.21261995 0.25549895 0.21336013

sequential/dense/MatMul f4 [128, 1]
00000000: 103f adbb 4618 07be 4f91 863e 5df3 efbc
00000010: 1c43 0b3e 1d67 e8bd ac78 bcbc bb06 f7bc
00000020: 75ae 22be f1ee ef3b f4a5 983d 5e32 94bc
00000030: 10cc 67bc 6c48 c53d a281 7b3e 9c21 263e
00000040: a127 00be f73c 1abe de33 07be 8732 01be
00000050: 20db e3bc 057b 573c 778d 58be ec1f 563e
00000060: 1d2b 1ebe dc4f 27be 0cb0 aebc e1fd 0bbe
00000070: 0fed 00be 5087 05be 0a97 07be 6f87 28be
00000080: ecde 143e c0f6 dd3d 2ef1 9fbb f3b9 e1bd
00000090: 842c c5bb 0e1f 00be ab2f c73c 6ed8 103e
000000a0: 2406 e63d 1786 69bb c902 1a3d 6824 293e
000000b0: 8a52 edbd 7ad9 1b3e 7bd4 09be b534 203c
000000c0: 1185 5e3e 2f76 f73d d22d 5dbe 03b3 163e
000000d0: 4181 1abe f03e 433c a957 1bbe ed5b fabd
000000e0: 7263 193b 26ed 023e 4b6b ee3c 83bf f23d
000000f0: 94fe 15be 9911 453b ba91 08be 9a12 373e
00000100: ff19 133e b928 163e 4ebb 17be 30e6 1a3e
00000110: 5dec a73c 11a5 42be a397 f2ba 8fe9 0cbe
00000120: bac6 46be f822 573e f5e7 2abe 60f7 243e
00000130: a823 05be 30c4 163e 0c8e 063e 05c4 aabc
00000140: 6f56 7f3c 7ae4 853e db46 0abe 4cc5 d53b
00000150: 8c9a dcbc 5a37 0b3e 5501 75bc f6c5 f4bd
00000160: 8548 e5bd bb36 6c3e 3602 f4bd 0cd2 41be
00000170: d78b 1ebe afef 723e cd21 0ebe c6be ddbd
00000180: 1e89 103e 1a4b 083e 6cad 133d 20f4 3f3e
00000190: adfa 133e afbf 20be 10f8 52be 3a26 3f3b
000001a0: 6d79 ff3d a953 023e 2b34 68ba 0339 64bb
000001b0: 0957 053e 120d 133e 98ec 5abe c6e1 273e
000001c0: 4870 f1bd 8452 04bc f6d7 ebbd af3e 3fbe
000001d0: a111 8b3e 0148 54be b3f3 c33d 96c7 3d3e
000001e0: cbf5 27be 2a90 5dbe e3fc b6bd b0fb 07be
000001f0: 7ce6 103e 1e8f fabd e93e 3ebe 7ffd f9bd
-0.0052870587 -0.13192853 0.26282737 -0.02929085 0.13599819 -0.11347792 -0.02300676 -0.030154577
-0.15886863 0.007322185 0.07453528 -0.018090423 -0.014147773 0.09632954 0.2456117 0.16223758
-0.12515117 -0.15062319 -0.1320338 -0.12616931 -0.027814448 0.013151889 -0.21147715 0.20910615
-0.15446134 -0.16339058 -0.02132418 -0.13671066 -0.1259043 -0.13039899 -0.1324121 -0.16457914
0.14538163 0.108380795 -0.004881046 -0.11021795 -0.0060172696 -0.12511846 0.024314722 0.14145061
0.1123164 -0.0035632902 0.037600312 0.16517794 -0.11588009 0.1521968 -0.13459961 0.009778191
0.21730448 0.120830886 -0.2159951 0.14716725 -0.15088369 0.011916861 -0.15170158 -0.12224565
0.0023405221 0.12785777 0.029103896 0.11852934 -0.14647895 0.0030070303 -0.1333684 0.1787819
0.14365385 0.14663972 -0.14817545 0.15126872 0.020498449 -0.1900828 -0.0018508326 -0.1376097
-0.19411746 0.21009433 -0.16690047 0.16109991 -0.13001883 0.14723277 0.13140124 -0.020845423
0.015584572 0.26150876 -0.13503592 0.0065237638 -0.026929162 0.13595334 -0.014953931 -0.119518206
-0.11195473 0.23067753 -0.11914484 -0.18927783 -0.15483032 0.23724245 -0.13880081 -0.10827403
0.14114806 0.13309899 0.03605406 0.1874547 0.14451094 -0.15698121 -0.20602441 0.0029167072
0.12474332 0.12727226 -0.0008857871 -0.003482402 0.13021483 0.14360455 -0.21379316 0.1639472
-0.11788994 -0.008076314 -0.11515801 -0.18676256 0.27161887 -0.20730592 0.09567966 0.18533167
-0.16402356 -0.21637025 -0.08934953 -0.13279605 0.14150423 -0.12234329 -0.18578686 -0.12206554

sequential/output_rating/MatMul f4 [1, 128]
00000000: f6b5 7eba 8139 c6bd 4968 213e b39b e1bc
00000010: b67b f2bd f740 7c3e 5319 fbbd 2475 d9bd
00000020: 952b 4abe b561 42bd cb18 7cbd d7f0 1fbd
00000030: 5218 09bd cad2 283d 97ce 3a3e e649 873e
00000040: 71ec 843e 5453 9abd 4222 a93e b642 923e
00000050: 96b0 e3bc c94b d9bc 2729 423e 0197 923e
00000060: 27b5 08be c04c 653e 2a84 08be feba ddbd
00000070: 9c2e 963e a8c2 9abd 4be7 653e 8fef 3cbe
00000080: caed d2bd 044a ab3e d218 d5bd ebd5 c73e
00000090: 2fd6 1dbd d7ad 7a3e 2c70 35bd 7c40 9d3e
000000a0: 7f6d 6cbd 91d4 36bc 8e12 60bd 6172 0cbe
000000b0: f001 9f3e 8937 21be 8d42 393e d2bc dabd
000000c0: 2727 803e 8f4e 783e 5c0f 023e 925e 6a3e
000000d0: e751 4abd 4233 0dbe 4004 873e e242 213e
000000e0: 0df2 65bd 58e4 8b3e e777 f4bd b769 52bd
000000f0: cf57 2c3e f55a 49be d432 5b3e 5ea2 613e
00000100: 726b 8e3e c5fd 993e 9d83 50be 5339 f43d
00000110: cdf8 77bd 509e 913e 6e25 3abe c7fb 863e
00000120: d9a3 603e 5a96 ab3e 0ff0 9c3e 4357 b1bd
00000130: 175f 813e 81d5 673e 4fb1 823e 236f f2bd
00000140: 4b70 1dbe 9858 5e3e 4148 19be 5555 febd
00000150: 3260 f8bd 0983 8b3e d7c8 bcbd 12ce 873e
00000160: f930 ad3e 69bf 883e e2e0 873e b3b1 483e
00000170: 024f 1d3e 7776 953e 8588 3b3e eb42 af3e
00000180: d561 543e 242e 8d3e c10b 23bd 77ab 8b3e
00000190: dd39 ac3e 6685 9abd 9a9b a13e cccf 46be
000001a0: 564a b23e 8266 aa3e 2d9c 2abe 142b 47bd
000001b0: a1f8 5c3e c6c4 53be 9d02 063e 3ef9 3f3e
000001c0: 9599 e93d 7abe c7bd 01e0 943e 0fac 743e
000001d0: 218c 153e fc0b 783e 2c23 063e 308c 423e
000001e0: 6d1a 29be 4053 3f3e aff4 ca3e cb6e 8cbd
000001f0: 258b 983e 9c3b b63e d3c5 1d3e f09b 2d3e
-0.00097164453 -0.09678937 0.15762438 -0.027540063 -0.11840002 0.24634157 -0.122606896 -0.10618046
-0.19743188 -0.047456462 -0.061547082 -0.039048042 -0.03347046 0.04121665 0.1824287 0.26423568
0.2596164 -0.07535425 0.3303395 0.2856652 -0.027794164 -0.026525395 0.18961011 0.28630832
-0.13350354 0.22392559 -0.13331667 -0.108266816 0.29332435 -0.07556659 0.22451513 -0.1845076
-0.10299261 0.33454907 -0.10405125 0.39030394 -0.03853434 0.24480377 -0.04429643 0.3071326
-0.05772161 -0.011159078 -0.054705195 -0.13715507 0.31056166 -0.15743841 0.18091793 -0.10680546
0.2502987 0.24248718 0.12701172 0.22887638 -0.049394514 -0.13789085 0.2637043 0.1574817
-0.05613904 0.2732265 -0.11936932 -0.05137035 0.16830371 -0.19663604 0.21406108 0.22034594
0.2781635 0.30076423 -0.20362706 0.11924996 -0.06054001 0.28441095 -0.18178341 0.26363966
0.21937503 0.33513147 0.306519 -0.08659222 0.2526786 0.22640039 0.255259 -0.11837604
-0.15374868 0.21713483 -0.14968969 -0.124186195 -0.12127723 0.2724841 -0.09217995 0.26524407
0.33826426 0.26708534 0.2653876 0.19599037 0.1536217 0.29191944 0.18313797 0.34230742
0.20740445 0.27574265 -0.03980613 0.27279255 0.33637896 -0.07544975 0.31564027 -0.19415206
0.3482234 0.33281332 -0.16661139 -0.048625067 0.2157922 -0.20680532 0.13086934 0.18747422
0.114062466 -0.097531274 0.2907715 0.2389376 0.14604236 0.24223322 0.13099355 0.1899879
-0.16513987 0.18684101 0.39639804 -0.068570696 0.2979366 0.35592353 0.15407495 0.16954017
