model.tflite (tflite, 3044 bytes, 3 tensors)

sequential/dense/BiasAdd/ReadVariableOp f4 [128]
000000 39 7e 8e 3e 60 5f 82 bc 40 cf 4c bd 7d 8b a6 bd
       0.27830675 -0.015914619 -0.050002337 -0.08132074
000010 86 7b 50 3e 1f 5a a5 bc f3 d4 f9 3d 1f fd 67 3e
       0.2035962 -0.020184575 0.1219882 0.22655152
000020 72 ca 5b bd ca 78 47 3e 40 5d 86 3e f2 ec 14 bd
       -0.053659864 0.19479671 0.2624302 -0.03635878
000030 6f 89 53 bd 95 27 38 bd 06 1d 59 3e ab ce 3e bd
       -0.05164474 -0.044959623 0.21202478 -0.046583813
000040 60 3d 58 3e 5b b2 e8 3d b7 85 90 3e 00 93 4e 3e
       0.21117163 0.113621436 0.28227016 0.20173264
000050 91 89 93 bc 41 e6 60 bd ea 71 51 3e 3d 1e 42 3e
       -0.018009933 -0.054907087 0.20453611 0.18956847
000060 05 c0 3e bc c0 a1 81 3e 5e 11 82 3e d7 08 31 bd
       -0.011642461 0.25318718 0.25403875 -0.04322132
000070 53 70 0e 3e fc 2e 68 3e 0b dd 59 bd 9d cb c0 bc
       0.13910036 0.22674173 -0.05318932 -0.02353459
000080 6f 11 2d bd 7a 0d 84 3e 73 73 50 bd 39 47 7f 3e
       -0.042252954 0.25791532 -0.05089135 0.24929513
000090 9d 67 5e 3e 26 5e 3a 3e 2b 3d 5f 3e cd 96 3f bd
       0.21719213 0.18199977 0.21800677 -0.046774674
0000a0 28 a2 6e bd 67 c7 5e 3e c8 12 58 3e 4b 12 5d 3e
       -0.058260113 0.21755753 0.21100914 0.2158901
0000b0 1f 49 72 3e cb 00 49 3e 75 f7 71 3e 0d cf 1c bd
       0.23660706 0.19629209 0.23629554 -0.038283397
0000c0 1b c8 5a bd dc 5e 84 3e cf 4b 91 bd 9f ce 88 3e
       -0.05341349 0.25853622 -0.070945375 0.2672014
0000d0 5c c7 92 bc 9e 12 56 bd 46 b9 60 3e 76 a2 79 3e
       -0.017917328 -0.05226385 0.21945676 0.2437838
0000e0 a1 a8 76 3e af d1 60 3e 93 a9 3b 3d 54 8b 88 3e
       0.24087764 0.21954988 0.045816015 0.266688
0000f0 5c 71 45 3e b9 a2 54 3e 07 50 57 3e 25 4a 2d bd
       0.19281524 0.20765199 0.21026622 -0.042307038
000100 91 70 35 3e 1a 7b 58 3e 2f a6 f2 bc 05 da 80 3e
       0.17718722 0.2114071 -0.029620258 0.25166336
000110 31 da 89 3e 43 9e 1d bd b6 bd 76 3e 2b 6c 9a bd
       0.2692428 -0.03848101 0.24095806 -0.07540163
000120 30 28 81 3e bf 6d 64 3e d1 5c 79 3e 07 f6 73 3e
       0.25225973 0.2230749 0.24351813 0.2382432
000130 ca 47 50 bc 9e 41 64 3e 3a a7 4a 3e a6 c2 82 3e
       -0.012712428 0.22290656 0.19790354 0.2553913
000140 ca 8b 83 3e a1 af 7a bd 7b 78 5c bd a3 ac a5 bc
       0.25692588 -0.06120265 -0.053825837 -0.020223921
000150 f3 67 ae bc 66 cf 2e 3c 3f ff 51 3e da 85 76 bd
       -0.021289801 0.010669565 0.20507525 -0.060186245
000160 d8 85 65 3e e6 c8 7f bc ef 19 39 bd b0 e3 a4 bd
       0.22414339 -0.015611863 -0.045190748 -0.080512404
000170 19 a2 8c 3e 3a ed a4 bd 8b aa 87 3e 8d a4 66 3e
       0.2746742 -0.0805306 0.264973 0.22523709
000180 5e 25 60 3e 7d da 29 bd f1 ec 4a bd 67 96 58 3e
       0.21889254 -0.041468132 -0.04954237 0.21151124
000190 e3 3e 6e bd 8b ea 98 bd 78 e3 52 3e e7 53 71 3e
       -0.058165442 -0.074666105 0.20594585 0.23567162
0001a0 e2 39 00 bd c2 ec 4b 3e 5a 47 60 3e b1 0e 42 3e
       -0.0313052 0.19914535 0.21902218 0.18950917
0001b0 76 0a 77 bd 5f c8 37 bc 74 63 54 3e 1a 39 25 bd
       -0.06031271 -0.011217206 0.20741063 -0.04033766
0001c0 5f 4a 5f 3e b4 e1 80 3e e8 8e b3 bd 0b 42 69 3e
       0.21805714 0.25172198 -0.087674916 0.227791
0001d0 65 97 36 3e 14 62 5f 3e da 21 46 bd ad 73 2e bc
       0.1783119 0.21814758 -0.048372127 -0.010647696
0001e0 c7 7c 36 3e 5c 48 51 bd 4d e9 82 3e 5c a6 56 3e
       0.17821036 -0.051094398 0.2556862 0.20961899
0001f0 8e 43 a1 bd 64 67 5c 3e 3a 48 5f 3e 65 c0 6a bd
       -0.07874213 0.21523815 0.21804896 -0.057312388

sequential/dense/MatMul f4 [128, 1]
000000 f7 ee 4a be e3 20 a7 bb 1b ac be 3c ff 7c 42 bd
       -0.1981772 -0.005100356 0.023275426 -0.047482487
000010 b4 17 e0 3d e5 37 0b bb e0 1c 93 bd ff 61 07 3e
       0.10942021 -0.0021243033 -0.07183242 0.13220976
000020 2b b8 4b 3e 19 cd c2 3d e0 45 1e be 90 41 69 bc
       0.19894473 0.095117755 -0.15456343 -0.014236823
000030 7e 32 dd bc a9 1b 01 be 50 b4 fb 3d 02 02 39 3e
       -0.027001616 -0.12608208 0.12290251 0.18067172
000040 87 50 3b 3e a0 98 8c bd 40 e0 2d be 26 fa e1 3d
       0.18292437 -0.068650484 -0.16980076 0.1103404
000050 f8 3a f5 3a 32 e2 26 be 73 e4 f1 3d 0e 49 94 3d
       0.0018709591 -0.16297224 0.11811151 0.072404966
000060 b3 d4 c2 bb c7 88 3c be 35 d0 3c be 9b 42 ad bc
       -0.005945766 -0.18411551 -0.184388 -0.021149924
000070 77 bb 0f be de 37 5e be a2 30 1f be ec ef 65 3a
       -0.14036356 -0.21700999 -0.15545896 0.0008771408
000080 75 0e 38 3e 1b 39 59 be 4f 51 46 3e 34 b4 3f be
       0.17974265 -0.2121319 0.19366954 -0.18721086
000090 ad de 0a 3e b9 65 8a 3d 20 e1 87 be 19 7a 0c be
       0.13561507 0.06757683 -0.26538944 -0.13718452
0000a0 93 8a 14 be 92 55 09 3e f7 74 39 3e 08 47 ed 3d
       -0.14505987 0.13411549 0.18111025 0.11585814
0000b0 66 0b 0e be b6 8e a6 3d 7d cb 0d be e1 2a 83 3c
       -0.13871536 0.08132689 -0.13847156 0.016011657
0000c0 d4 49 4c 3e c0 66 2a 3e ed 6d 2a bd f0 b4 20 be
       0.19950038 0.16640759 -0.04160874 -0.15694022
0000d0 29 25 2f bb 67 d0 15 be c3 f1 e0 3d a2 54 16 be
       -0.002672503 -0.1463028 0.109836124 -0.14680722
0000e0 9e ed 79 be c4 a9 36 3e 9e dc 87 bd 8e b7 4f be
       -0.2440705 0.17838198 -0.06633876 -0.20284864
0000f0 34 56 d5 3d 77 21 49 3e be 89 45 3e db a1 9b bc
       0.104168326 0.19641672 0.19290826 -0.018998077
000100 d9 ab a4 3d 6f 79 e9 3d 60 42 11 3e 4a 1d 44 3e
       0.0804059 0.11400115 0.14185476 0.19151798
000110 13 df 2a 3e d5 3f de bd 76 5b 82 be 6b ef 35 bd
       0.16686659 -0.10852019 -0.25460404 -0.04441778
000120 54 2a 1f 3e 5f 46 25 3e 5b 1e 16 be 5e d0 44 be
       0.1554349 0.16140126 -0.14660017 -0.19220111
000130 d8 49 c8 bb 58 51 75 be 3c 33 db 3d c8 36 23 be
       -0.0061123185 -0.23956811 0.107031316 -0.15938866
000140 7b 9c 1c be f3 b5 fc 3c cd 8d 0f be 55 2c 75 3a
       -0.15294068 0.030848479 -0.14018936 0.0009352614
000150 35 94 7e b9 da 82 11 3e 21 1a ed 3d 23 f3 23 be
       -0.00024278539 0.14210072 0.11577249 -0.16010718
000160 14 c4 06 be 34 e8 85 3b b7 a1 9d 3c b0 fb 4f bd
       -0.13160735 0.0040865187 0.01924215 -0.050777137
000170 21 e2 50 be 86 29 41 bd 9c 54 1f be fe 30 07 be
       -0.20398761 -0.04715874 -0.1555962 -0.13202283
000180 5a 4a 0f 3e 1a 8c 8b 3c 62 d1 d2 bc 03 16 de 3d
       0.13993207 0.017034579 -0.025734607 0.10844042
000190 11 f3 f8 bc 94 2b 36 bd d3 de 79 3d 73 36 49 3e
       -0.03038934 -0.044475153 0.061003517 0.19649677
0001a0 a6 a5 fd bb e2 2a d3 3d ba 05 f6 3d 6e 80 3c 3d
       -0.007740694 0.103109136 0.12012811 0.046020918
0001b0 c7 a2 f6 3c 64 48 dc bb 56 0c d7 3d 7d a1 94 bc
       0.030106915 -0.006722497 0.105004 -0.01814341
0001c0 7d a9 15 3e e6 62 3c be 65 0d 5a bd 1b 15 09 be
       0.14615436 -0.18397102 -0.05323543 -0.13386957
0001d0 d0 b5 9a 3d 65 0a b5 3d 48 37 b4 3c 04 3c d1 bb
       0.07554209 0.08839873 0.021999016 -0.0063853282
0001e0 1b 30 a8 3d ef fa 5e 3e b5 78 19 be c7 a3 58 3e
       0.082123004 0.21775411 -0.14987452 0.21156226
0001f0 e6 d2 3e bd f5 70 45 3e b0 33 03 be c4 d6 54 3e
       -0.046587847 0.19281371 -0.12812686 0.20785052

sequential/output_rating/MatMul f4 [1, 128]
000000 b1 f8 3a 3e 99 13 70 bd c3 e6 c6 bd 7f d3 1a be
       0.1825893 -0.05861244 -0.09711983 -0.15119742
000010 8a 9a 79 3e 4e 88 2f be 73 7e 37 3d de 92 4b 3e
       0.24375358 -0.1714184 0.044798326 0.19880244
000020 5c 11 44 be 41 a2 80 3e c3 e4 60 3e 07 bf 14 bd
       -0.19147247 0.2512379 0.21962266 -0.03631499
000030 2f 76 71 bd cb 29 a0 bd b6 04 84 3e 93 5c d7 bd
       -0.0589506 -0.078204714 0.25784844 -0.10515704
000040 20 27 8f 3e 9a 59 a2 3d 63 a1 40 3e 87 31 8f 3e
       0.27959538 0.079272464 0.18811564 0.27967474
000050 50 37 0c be 07 88 26 bd 4d a0 9e 3e 69 d5 8a 3e
       -0.13692975 -0.04065707 0.30981675 0.27115944
000060 42 0d 98 bd 44 2d 7f 3e 8d 90 7a 3e 0f ca 19 bd
       -0.07424404 0.24919611 0.24469204 -0.037546214
000070 6c 8b 36 3d cc ca b3 3e 5d 25 14 be 5b 4d 41 bd
       0.044566557 0.3511566 -0.14467378 -0.047192913
000080 65 3f 4f be 91 03 58 3e 5f 16 05 be 78 35 ee 3d
       -0.20239027 0.2109511 -0.12996815 0.11631292
000090 ef c1 a5 3e b0 be a0 3e f7 46 a6 3e c9 b2 e3 bd
       0.32374522 0.31395483 0.32476017 -0.11118085
0000a0 b5 07 77 bd bf 5f 8a 3e e7 af 91 3e 43 c2 4d 3e
       -0.060310084 0.27026173 0.28454515 0.20093636
0000b0 49 42 8a 3e f4 7d 79 3e 2e 45 98 3e 2d 2f 84 bd
       0.27003697 0.24364454 0.2974028 -0.064543106
0000c0 88 1b 12 be d6 97 c8 3d e1 4a 00 be df 6f 54 3e
       -0.14268315 0.097945854 -0.12528564 0.207458
0000d0 01 7b 22 be 07 8b d9 bd 4a fd 41 3e cd 85 9f 3e
       -0.15867235 -0.106222205 0.18944278 0.3115677
0000e0 52 d4 6a 3e e1 de 6f 3e 7a f4 07 bc b3 cd 4c 3e
       0.22932556 0.23424865 -0.008298034 0.20000343
0000f0 63 9c 92 3e 30 04 95 3e 7f 61 8b 3e 9a 06 0a be
       0.2863494 0.29104757 0.2722282 -0.13479081
000100 31 57 c1 3e b3 31 50 3e c4 54 ed bd b8 2a 08 3e
       0.37761834 0.20331459 -0.115884334 0.13297546
000110 5d 4f f6 3d 54 79 86 bd c8 f7 5f 3e eb 36 ed bd
       0.12026856 -0.0656611 0.21871865 -0.115827404
000120 4b b3 1a 3e 28 e7 74 3e 73 98 9f 3e 2f 78 a1 3e
       0.15107457 0.23916304 0.31170997 0.31537005
000130 a3 96 33 bd a3 d9 a9 3e b2 51 84 3e 69 53 82 3e
       -0.04384483 0.33173856 0.2584358 0.25454262
000140 c5 16 74 3e db b0 0c be e1 6f 97 bd ab e9 39 be
       0.23836811 -0.1373934 -0.07394386 -0.18155544
000150 6e 9a ee bc 04 98 26 bd ac 3a 93 3e 7f 7a ba bd
       -0.029126372 -0.040672317 0.287557 -0.091053955
000160 e3 ba 9d 3e 03 be 0a be de 5b 82 bd e5 2e 6c bd
       0.30806646 -0.13549046 -0.063651785 -0.05766191
000170 bf 48 3e 3e a4 c0 0b be 85 c4 59 3e 7d c4 a7 3e
       0.18582438 -0.13647705 0.21266373 0.32767096
000180 68 0e a0 3e c5 67 76 bd 68 fb 7e bd c0 7c 50 3e
       0.3126099 -0.060157556 -0.06225148 0.20360088
000190 22 cd 0c be 44 e8 15 be c4 fc 61 3e d5 e3 1f 3e
       -0.13750127 -0.14639384 0.22069079 0.15614255
0001a0 e8 04 99 bd cf d2 73 3e 1b 76 59 3e 97 46 89 3e
       -0.07471639 0.23810886 0.2123646 0.26811668
0001b0 2a 0c 19 be 51 27 10 be e3 92 59 3e 6d 96 6f bd
       -0.14946046 -0.14077498 0.21247439 -0.058493067
0001c0 d6 75 9c 3e 7c 14 83 3e d5 ef 06 be 2a 55 bb 3e
       0.30558652 0.25601566 -0.13177426 0.36588413
0001d0 ae 76 b5 3e d8 f0 48 3e 37 65 a3 bd 16 55 37 be
       0.35442108 0.19623125 -0.079782896 -0.17903551
0001e0 97 dd bb 3e ed f7 ac bd f5 5f 6f 3e dc 6f 75 3e
       0.36692497 -0.084457256 0.23376448 0.23968452
0001f0 bf fb f9 bd 40 e5 6f 3e fe 83 b2 3e b7 71 3d be
       -0.1220622 0.23427296 0.34866327 -0.1850041
