model.tflite (tflite, 3036 bytes, 3 tensors)

sequential/dense/BiasAdd/ReadVariableOp f4 [128]
000000 a2 d1 8f 3e 59 1a 8d 3e f3 31 4f bc 72 34 8f 3e
       0.28089625 0.27559164 -0.012646186 0.279697
000010 b1 33 5a bd 35 fb 52 3e af cd 6c bd d3 1a 71 3e
       -0.053271953 0.2060364 -0.057813343 0.23545389
000020 7e f0 43 3e 61 4c 81 bd ab 3d 5a bc 34 07 66 3e
       0.19134709 -0.06313396 -0.013320367 0.22463685
000030 28 7e 30 bb a1 0e 6d 3e 68 54 17 bd b3 9c 40 bd
       -0.0026930664 0.23150112 -0.03694573 -0.04702444
000040 01 11 44 3e c3 fd 56 3e 14 63 64 3e 3e 7e 3c 3e
       0.19147111 0.2099524 0.2230342 0.18407533
000050 c3 a0 58 3e a2 0b 63 bd 6a 86 43 3e 93 f7 5d bd
       0.21155076 -0.055431016 0.19094244 -0.054191183
000060 ab 60 df bb 64 a8 80 3e 39 b0 5c 3e 00 3c 78 3e
       -0.0068169436 0.25128472 0.21551599 0.24241638
000070 22 38 43 3e 78 69 3c bc 1e a4 66 3e b2 1b 62 bc
       0.19064382 -0.011499755 0.22523543 -0.013800548
000080 13 9b 4f 3e b0 76 80 3e c5 64 1b bd c1 ca 4a 3e
       0.20274 0.2509055 -0.0379379 0.19803907
000090 20 95 bb bb 80 6d 91 bc 09 27 37 3e df f6 48 3e
       -0.005724564 -0.017752409 0.17885984 0.19625424
0000a0 3d b3 55 3e 0c 93 6c 3e db 54 4d 3e b7 67 5f 3e
       0.20869155 0.23102969 0.20051901 0.21816908
0000b0 05 11 37 bd f8 2e 78 bd c3 81 67 3e 1a 6c 74 bd
       -0.044693965 -0.060591668 0.22608094 -0.059673406
0000c0 6c a6 6c 3e 64 a3 70 3e a0 9a 2c bd a6 d8 3b bd
       0.2311036 0.23499829 -0.04213965 -0.04586091
0000d0 20 22 70 bd 24 89 4f 3e 4d e0 07 bd a9 e8 eb bc
       -0.058626294 0.20267159 -0.033172894 -0.028797464
0000e0 6f 73 63 3e dd cd 85 3e ab 22 50 3e f0 bf 61 3e
       0.22212003 0.26133624 0.20325725 0.22045875
0000f0 ff 50 30 bd 62 39 4f 3e 7d a8 5b 3e cb e6 69 3e
       -0.043045994 0.20236734 0.21450992 0.22841947
000100 bc c1 89 3e 00 32 62 3e 95 0a 65 bd e0 ad 8d 3e
       0.2690562 0.22089386 -0.055918295 0.2767172
000110 d8 07 69 3e 5c 9e 4c 3e 71 e6 64 bd 7c 23 65 3e
       0.22756898 0.19982284 -0.05588383 0.22376817
000120 a2 7b 7f bd 3c 77 84 bd 2e 3b 47 bd 52 08 84 3e
       -0.062373765 -0.06468055 -0.048640423 0.25787598
000130 09 64 85 bc 4f 2c 1d bd 04 96 7a 3e 41 9e 1b bd
       -0.016283052 -0.038372334 0.24471289 -0.03799272
000140 7c 1b 70 3e 00 b4 3e 3e c2 e7 80 3e 8d f5 b3 bd
       0.23447984 0.18623352 0.25176817 -0.087870695
000150 a7 5e 8a bd 7b bd 4a 3e 8c 09 8c bc 4b b3 99 bc
       -0.06756335 0.19798844 -0.017094396 -0.018762251
000160 ec 46 7a 3e 3c cc 4f 3e c2 48 7a 3e 6d 0d 61 bd
       0.24441117 0.20292753 0.24441817 -0.054944444
000170 44 e5 38 3e ac b0 81 3e 4b 1c 62 3e 0e 6d 7e 3e
       0.18056208 0.25330102 0.22081105 0.24846289
000180 2a e7 90 3e a5 29 59 3e b5 eb 91 bc 58 32 05 bd
       0.28301364 0.21207292 -0.01781259 -0.032518715
000190 5c d1 70 3e 15 f8 75 3e 6f b9 b3 bd 42 51 7d 3e
       0.23517364 0.24020417 -0.08775603 0.24738029
0001a0 88 4d 80 3e 3a 3b 33 bd 12 c6 5c bd 55 8f 62 3e
       0.25059152 -0.043757655 -0.053899832 0.2212499
0001b0 08 15 5c 3e 4f 78 3a 3e 22 8f 00 bc 35 87 5e bd
       0.21492398 0.18209957 -0.0078466255 -0.054328162
0001c0 13 bc 8d bd c1 65 4f 3e 0d 3f 27 bd 1b 00 69 3e
       -0.06920638 0.2025366 -0.040831614 0.22753946
0001d0 73 dd 51 bd ca a0 72 3e 61 65 83 3e 81 84 d1 bc
       -0.05123658 0.23694149 0.25663283 -0.025575878
0001e0 4a 0a 73 bd 28 82 83 bd c7 44 12 bd 11 0c 54 3e
       -0.059335984 -0.0642131 -0.035710122 0.20707728
0001f0 4a 51 4c 3e 32 c6 59 3e 6b 9b 43 3e a0 9a da bc
       0.19952884 0.21267012 0.19102256 -0.02668506

sequential/dense/MatMul f4 [128, 1]
000000 0e d6 8b be 7f c0 21 be db 86 c0 3b 15 a4 31 be
       -0.27311748 -0.15796088 0.005875451 -0.17347749
000010 03 82 3f 3e b0 ef f0 bd 2e c4 41 3e 16 c4 12 be
       0.1870194 -0.11764467 0.18922493 -0.14332613
000020 ce e2 e2 3d c1 a9 0e bd 9e 89 af bb c6 8a 03 be
       0.11078416 -0.03482986 -0.0053569814 -0.12845907
000030 6d 05 0f be 86 cb 07 be 24 ac 5a bc d5 f7 4e 3e
       -0.13966914 -0.13261232 -0.013346706 0.20211728
000040 c7 a2 cc 3d d5 56 e6 3d 54 21 03 3e a6 b7 7e 3d
       0.09991985 0.11247031 0.12805682 0.06218686
000050 9a be 2a 3e 4e a3 3f 3e 5a 7d dc 3d 55 22 e6 bc
       0.16674271 0.1871464 0.107660964 -0.028092543
000060 e6 d2 68 bb ba 0b 21 3e 26 0f 8c be 48 38 0e 3e
       -0.0035526096 0.1572713 -0.27355307 0.13888657
000070 e2 5a 9f 3d c4 48 b7 3b c0 28 0b 3e c4 7f a0 bb
       0.077810064 0.005593391 0.13589764 -0.0048980433
000080 9e ee 4b 3e 4c 36 85 be 7a 7d 1b 3e de 1c f5 3d
       0.19915244 -0.26017988 0.15184584 0.119683966
000090 29 b2 28 3e a8 69 30 bb fb fa a2 3d b6 d6 e1 3d
       0.16474213 -0.0026918445 0.07958027 0.11027281
0000a0 9e d5 01 3e 02 80 83 be 31 13 f7 3d a1 e7 01 3e
       0.12679145 -0.256836 0.12064207 0.12686016
0000b0 5b 2d e1 bd ae 24 1c be b0 53 04 be 5b d5 43 3e
       -0.10994979 -0.15248367 -0.12922549 0.19124357
0000c0 0a 5e 07 be 94 db 2c 3e a0 a3 1f 3e 1a 99 49 3e
       -0.13219467 0.16880637 0.15589762 0.1968731
0000d0 2b 8e 18 be 06 2c 4b 3e 26 29 66 3c d8 f6 15 3c
       -0.14897983 0.19841012 0.0140478965 0.00915309
0000e0 b6 88 09 be 5a 2d 1f be 67 de ed bd d5 4e 09 3e
       -0.13431057 -0.15544644 -0.116146855 0.13408978
0000f0 22 94 95 3c f4 f9 3d 3e e9 18 26 3e e1 92 17 3e
       0.018259112 0.18552381 0.1622044 0.14802124
000100 bc 44 83 be 3f f5 13 3e dd bc 02 be 65 bc 68 be
       -0.25638378 0.14449023 -0.12767358 -0.22728117
000110 4f 7a 7c be b2 cf e8 3d d4 df 12 be df d3 83 be
       -0.24656032 0.1136774 -0.14343196 -0.25747582
000120 31 be 27 be ee 41 15 bd df 12 1e be ed 40 7f be
       -0.16381146 -0.03643983 -0.15436886 -0.24927111
000130 19 54 63 3b 6c 01 1c 3e 1d 13 1a be c7 d0 5d bc
       0.0034687577 0.15234917 -0.15046354 -0.013538546
000140 23 1e 12 be 47 9b da 3d 3a 8a 1c 3e 37 d9 59 bd
       -0.14269309 0.10674148 0.15287104 -0.053185668
000150 a6 df 1b bd 72 c4 ea 3d a9 f4 64 3b 9c 1f 45 3a
       -0.038055085 0.1146325 0.0034935868 0.0007519664
000160 ec 10 0f be de 58 41 3e 5b 4c 2c be 83 48 f1 bc
       -0.13971299 0.18881556 -0.16826002 -0.029453522
000170 65 28 c9 3d b9 5d 14 be 66 46 01 be 3b 26 4a be
       0.09822158 -0.14488877 -0.12624511 -0.19741146
000180 46 9f 2f be 85 1d 1b 3e 52 0e 47 bb 1c c9 0d 3c
       -0.17150602 0.1514798 -0.0030373526 0.008653905
000190 14 da 1b 3e dd 51 8b be f5 43 64 bd fa 20 22 3e
       0.15219909 -0.27210894 -0.05572887 0.15832892
0001a0 29 cd 12 be e7 66 24 3e 4d 25 e7 bc c1 9f 1e 3e
       -0.14336075 0.16054879 -0.028216029 0.15490629
0001b0 05 ef 18 3e a4 e2 d2 3d 90 19 01 bb ee 9e 35 3e
       0.14934929 0.102971345 -0.0019699074 0.17736408
0001c0 a6 30 23 bd 2b d9 f1 3d dc ff 81 3c 0d c0 4b be
       -0.039841317 0.11809 0.015869074 -0.1989748
0001d0 06 80 30 3e a6 c1 0c 3e 2e 80 32 3e e2 7c 3f 3b
       0.17236337 0.13745746 0.17431709 0.0029218723
0001e0 fb ff f3 3c e0 f9 24 be e5 f6 38 3c f5 77 f2 bd
       0.029785147 -0.16110945 0.011289333 -0.11839286
0001f0 bb 45 ca 3d 1b e2 2f 3e 95 16 d7 3d 23 71 04 be
       0.09876581 0.17176096 0.10502354 -0.12933783

sequential/output_rating/MatMul f4 [1, 128]
000000 be f0 10 3e 6c 9d 45 3e 12 37 0a bd 27 13 3e 3e
       0.14154336 0.19298333 -0.033743925 0.18561994
000010 9e 23 9d bd ac 95 a3 3e f4 2d cb bd b7 f8 b4 3e
       -0.07672809 0.31950128 -0.09920874 0.35346004
000020 57 2d ac 3e 4c 27 18 be 48 37 46 bd f5 e4 a2 3e
       0.33628342 -0.1485874 -0.048392564 0.31815305
000030 c4 bd 76 bc 49 1f b0 3e b3 e6 c6 bd 56 ac 82 bd
       -0.015059892 0.3439887 -0.09711971 -0.06380527
000040 89 63 00 3e b2 08 28 3e 89 67 38 3e 60 f6 9b 3e
       0.1253797 0.16409567 0.18008246 0.30461407
000050 3d d3 85 3e 9f da a8 bd 70 91 8c 3e dd 1f 18 be
       0.26137725 -0.08244824 0.2745471 -0.14855905
000060 00 96 f7 bd a5 6b 11 3e d3 89 8f 3e 56 73 1d 3e
       -0.12089157 0.1420122 0.2803484 0.15376028
000070 9f e8 88 3e 30 55 ff bd 6e 5b 3e 3e fb cb 92 bd
       0.26739976 -0.1246742 0.18589565 -0.071678124
000080 6f 22 86 3e 27 44 37 3e cf ba 82 be 55 44 b3 3e
       0.26198146 0.17897092 -0.2553315 0.3501307
000090 33 8e 1e bd b1 26 c6 bc cd e4 b6 3e 58 70 81 3e
       -0.03870983 -0.024188371 0.35721436 0.25281024
0000a0 b1 fc 98 3e cb 6f 68 3e f0 db a1 3e 5e b6 4d 3e
       0.29880288 0.22698896 0.31613111 0.20089099
0000b0 87 eb 0e bd 46 b3 2f bd e2 26 b7 3e 60 57 59 be
       -0.034892585 -0.042895578 0.35771853 -0.21224737
0000c0 b1 45 20 3e 18 03 28 3e c1 48 f4 bd c3 03 23 be
       0.15651585 0.1640743 -0.11927939 -0.15919404
0000d0 19 b5 cd bd 18 3d 86 3e 12 ea 18 bc d1 52 1b bc
       -0.10044307 0.26218486 -0.00933315 -0.009480194
0000e0 25 7e e1 3d af aa 63 3e d5 38 c5 3e a9 6b 66 3e
       0.11010388 0.2223308 0.38519922 0.22502007
0000f0 4a d0 75 bd fc d9 97 3e 25 29 80 3e 83 40 4b 3e
       -0.060013093 0.29658496 0.2503139 0.19848828
000100 66 37 21 3e a6 c0 72 3e 67 40 3d bd 7b 84 27 3e
       0.15743789 0.23706302 -0.046203997 0.16359131
000110 55 47 80 3e a1 0b 7d 3e ae 95 cd bd b8 aa 81 3e
       0.25054422 0.24711467 -0.10038315 0.2532556
000120 69 6d 19 be 99 9a 0f be 69 02 00 bd 31 fb 31 3e
       -0.14983143 -0.14023818 -0.0312523 0.17380978
000130 fa da 99 bc 2e 75 ff bd b0 6d 91 3e 46 eb 29 be
       -0.018781174 -0.12473522 0.28403997 -0.16593656
000140 a4 37 b9 3e 0d 7a b6 3e d8 bb 10 3e 23 16 19 be
       0.36175263 0.35639992 0.14134157 -0.1494985
000150 ab 19 14 be bc 47 95 3e b9 47 38 be fd 4c 4f 3a
       -0.14462917 0.2915629 -0.1799611 0.00079078955
000160 7f 84 3a 3e 95 bd 90 3e 45 22 8d 3e 25 72 0d be
       0.18214606 0.2826964 0.27565208 -0.13813074
000170 f0 47 b5 3e 84 6a 5d 3e 49 4c c9 3e aa 10 f7 3d
       0.35406446 0.21622664 0.39316013 0.12063725
000180 9f c8 3a 3e 85 2f 97 3e d3 31 88 bd be 86 ad bd
       0.18240593 0.29528442 -0.06650128 -0.08472966
000190 6e 66 33 3e 56 16 42 3e bd 90 eb bd 92 ec 16 3e
       0.17519543 0.18953833 -0.11502216 0.14738682
0001a0 27 d1 5d 3e 15 7a 46 be 37 ef fc bd 4b d0 65 3e
       0.21661817 -0.19382508 -0.12350314 0.22442739
0001b0 bb c0 8c 3e 65 3c b5 3e c7 2b 4a be f8 7f 06 be
       0.27490792 0.3539764 -0.19743262 -0.13134754
0001c0 52 ec 20 be ad 16 8e 3e 08 ef cb bd 4f a5 a8 3e
       -0.15715149 0.27751675 -0.09957701 0.3293862
0001d0 59 31 3a be b2 e7 24 3e 07 45 02 3e 01 9b 77 bd
       -0.18182887 0.1610401 0.12721644 -0.060450558
0001e0 c7 8e 2d be 51 08 c6 bd 7a 32 2b be 7e 87 b9 3e
       -0.16948996 -0.09669555 -0.16718474 0.36236185
0001f0 a2 7b 6d 3e 5a 53 75 3e 3f e5 89 3e 0d 1f d1 bc
       0.23191693 0.23957577 0.26932713 -0.025527501
